…
g=4.0046870708465576e-07\n  • typing=2.7157366275787354e-06\n  • pathlib=1.2516975402832031e-06\n  • ezpz=6.30505383014679e-07\n  • torch=2.555549144744873e-06\n  • torch_ddp=2.4745240807533264e-06\n  • wandb=6.44102692604065e-05\n  • total=7.550138980150223e-05\n\n\n[2024-07-23 22:21:39.807221][INFO][dist:95] -\n\n[CONFIG]:\n  • warmup=0\n  • log_freq=1\n  • batch_size=64\n  • input_size=128\n  • output_size=128\n  • dtype=torch.float32\n  • device=cuda\n  • world_size=4\n  • train_iters=100\n\n[2024-07-23 22:21:41.373173][INFO][test_dist:183] - model=Network(\n  (layers): Sequential(\n    (0): Linear(in_features=128, out_features=1024, bias=True)\n    (1): Linear(in_features=1024, out_features=512, bias=True)\n    (2): Linear(in_features=512, out_features=256, bias=True)\n    (3): Linear(in_features=256, out_features=128, bias=True)\n    (4): Linear(in_features=128, out_features=128, bias=True)\n  )\n)\n[2024-07-23 22:21:43.625040][INFO][test_dist:274] - iter=1, loss=2039.91, sps=2.252e+04, dt=0.00284196, dtf=0.0009801, dtb=0.001862\n[2024-07-23 22:21:43.628643][INFO][test_dist:274] - iter=2, loss=1424.54, sps=3.272e+04, dt=0.00195628, dtf=0.0005183, dtb=0.001438\n[2024-07-23 22:21:43.631833][INFO][test_dist:274] - iter=3, loss=1159.38, sps=3
…
.507601261138916e-07\n  • typing=2.9457733035087585e-06\n  • pathlib=1.2619420886039734e-06\n  • ezpz=6.109476089477539e-07\n  • torch=3.5976991057395935e-06\n  • torch_ddp=2.3636966943740845e-06\n  • wandb=6.36400654911995e-05\n  • total=7.597357034683228e-05\n\n\n[2024-07-15 12:46:26.453718][INFO][dist:95] -\n\n[CONFIG]:\n  • warmup=0\n  • log_freq=1\n  • batch_size=64\n  • input_size=128\n  • output_size=128\n  • dtype=torch.float32\n  • device=cuda\n  • world_size=4\n  • train_iters=100\n\n\n[2024-07-15 12:46:28.048558][INFO][test_dist:183] - model=Network(\n  (layers): Sequential(\n    (0): Linear(in_features=128, out_features=1024, bias=True)\n    (1): Linear(in_features=1024, out_features=512, bias=True)\n    (2): Linear(in_features=512, out_features=256, bias=True)\n    (3): Linear(in_features=256, out_features=128, bias=True)\n    (4): Linear(in_features=128, out_features=128, bias=True)\n  )\n)\n[2024-07-15 12:46:30.303706][INFO][test_dist:274] - iter=1, loss=1977.36, sps=1.829e+04, dt=0.00349948, dtf=0.00097, dtb=0.00253\n[2024-07-15 12:46:30.307445][INFO][test_dist:274] - iter=2, loss=1521.61, sps=3.179e+04, dt=0.00201315, dtf=0.0005266, dtb=0.001487\n[2024-07-15 12:46:30.310480][INFO][test_dist:274] - iter=3, loss=1101.45, sps=3.63
…
nd-683](https://wandb.ai/aurora_gpt/ezpz.test_dist/runs/4mwyy84l)\n[2024-11-28 13:44:35.495959][INFO][dist.py:304] - Updating wandb.run: driven-wind-683 config with \"DIST_INFO\"\n[2024-11-28 13:44:35.500222][INFO][dist.py:936] - Running on machine='SunSpot'\n[2024-11-28 13:44:35.501304][INFO][dist.py:92] -\n\n[CONFIG]:\n  • warmup=0\n  • log_freq=1\n  • batch_size=64\n  • input_size=128\n  • output_size=128\n  • dtype=torch.float32\n  • device=xpu\n  • world_size=48\n  • train_iters=100\n\n\n[2024-11-28 13:44:35.575161][INFO][test_dist.py:147] - model=Network(\n  (layers): Sequential(\n    (0): Linear(in_features=128, out_features=1024, bias=True)\n    (1): Linear(in_features=1024, out_features=512, bias=True)\n    (2): Linear(in_features=512, out_features=256, bias=True)\n    (3): Linear(in_features=256, out_features=128, bias=True)\n    (4): Linear(in_features=128, out_features=128, bias=True)\n  )\n)\n[2024-11-28 13:44:48.340596][INFO][test_dist.py:228] - iter=1 dt=0.019713 dtf=0.002959 dtb=0.016754 loss=1821.131958 sps=3246.551823\n[2024-11-28 13:44:48.346527][INFO][test_dist.py:228] - iter=2 dt=0.004083 dtf=0.000822 dtb=0.003261 loss=1348.032227 sps=15673.877930\n[2024-11-28 13:44:48.351387][INFO][test_dist.py:228] - iter=3 dt=0.003260 dt
…
