…
g=4.507601261138916e-07\n  • typing=2.9457733035087585e-06\n  • pathlib=1.3122335076332092e-06\n  • ezpz=6.109476089477539e-07\n  • torch=2.9457733035087585e-06\n  • torch_ddp=2.314336597919464e-06\n  • wandb=1.842435449361801e-05\n  • total=3.0086375772953033e-05\n\n[2024-07-17 07:35:33.188979][INFO][dist:95] -\n\n[CONFIG]:\n  • warmup=0\n  • log_freq=1\n  • batch_size=64\n  • input_size=128\n  • output_size=128\n  • dtype=torch.float32\n  • device=cuda\n  • world_size=4\n  • train_iters=100\n\n[2024-07-17 07:35:34.761945][INFO][test_dist:183] - model=Network(\n  (layers): Sequential(\n    (0): Linear(in_features=128, out_features=1024, bias=True)\n    (1): Linear(in_features=1024, out_features=512, bias=True)\n    (2): Linear(in_features=512, out_features=256, bias=True)\n    (3): Linear(in_features=256, out_features=128, bias=True)\n    (4): Linear(in_features=128, out_features=128, bias=True)\n  )\n)\n[2024-07-17 07:35:36.943300][INFO][test_dist:274] - iter=1, loss=2152.41, sps=1.697e+04, dt=0.00377066, dtf=0.001003, dtb=0.002768\n[2024-07-17 07:35:36.948048][INFO][test_dist:274] - iter=2, loss=1577.24, sps=3.611e+04, dt=0.00177221, dtf=0.0005256, dtb=0.001247\n[2024-07-17 07:35:36.952085][INFO][test_dist:274] - iter=3, loss=1201.25, sps=3.
…
 parameters\n[2024-07-17 07:42:17.293296][INFO][model:449] - num non-decayed parameter tensors: 25, with 19,200 parameters\n[2024-07-17 07:42:17.515324][CRITICAL][trainer:316] - \"devid='cuda:1'\"\n[2024-07-17 07:42:17.515340][CRITICAL][trainer:316] - \"devid='cuda:2'\"\n[2024-07-17 07:42:17.515465][CRITICAL][trainer:316] - \"devid='cuda:3'\"\n[2024-07-17 07:42:18.431814][INFO][model:465] - using fused AdamW: True\n[2024-07-17 07:42:18.432620][CRITICAL][trainer:316] - \"devid='cuda:0'\"\n[2024-07-17 07:42:19.951020][INFO][trainer:356] - • self.model=GPT(\n  (transformer): ModuleDict(\n    (wte): Embedding(65, 768)\n    (wpe): Embedding(1024, 768)\n    (drop): Dropout(p=0.0, inplace=False)\n    (h): ModuleList(\n      (0-11): 12 x Block(\n        (ln_1): LayerNorm()\n        (attn): CausalSelfAttention(\n          (c_attn): Linear(in_features=768, out_features=2304, bias=False)\n          (c_proj): Linear(in_features=768, out_features=768, bias=False)\n          (attn_dropout): Dropout(p=0.0, inplace=False)\n          (resid_dropout): Dropout(p=0.0, inplace=False)\n        )\n        (ln_2): LayerNorm()\n        (mlp): MLP(\n          (c_fc): Linear(in_features=768, out_features=3072, bias=False)\n          (act_fn): GELU(approximate='none')\n          (c_proj): Linear(in_features=3072, out_features=768, bias=False)\n          (dropout): Dropout(p=0.0, inplace=False)\n        )\n      )\n    )\n    (ln_f): LayerNorm()\n  )\n  (lm_head): Linear(in_features=768, out_features=65, bias=False)\n)\n[2024-07-17 07:42:19.955340][INFO][trainer:357] - • self.grad_scaler=&lt;torch.cuda.amp.grad_scaler.GradScaler object at 0x145a38f0f090&gt;\n[2024-07-17 07:42:19.956897][INFO][trainer:358] - • self.model_engine=DistributedDataParallel(\n  (module): GPT(\n    (transformer): ModuleDict(\n      (wte): Embedding(65, 768)\n      (wpe): Embedding(1024, 768)\n      (drop): Dropout(p=0.0, inplace=False)\n      (h): ModuleList(\n        (0-11): 12 x Block(\n          (ln_1): LayerNorm()\n          (attn): CausalSelfAttention(\n            (c_attn): Linear(in_features=768, out_features=2304, bias=False)\n            (c_proj): Linear(in_features=768, out_features=768, bias=False)\n            (attn_dropout): Dropout(p=0.0, inplace=False)\n            (resid_dropout): Dropout(p=0.0, inplace=False)\n          )\n          (ln_2): LayerNorm()\n          (mlp): MLP(\n            (c_fc): Linear(in_features=768, out_features=3072, bias=False)\n            (act_fn): GELU(approximate='none')\n            (c_proj): Linear(in_features=3072, out_features=768, bias=False)\n            (dropout): Dropout(p=0.0, inplace=False)\n          )\n        )\n      )\n      (ln_f): LayerNorm()\n    )\n    (lm_head): Linear(in_features=768, out_features=65, bias=False)\n  )\n)\n[2024-07-17 07:42:19.961066][INFO][trainer:359] - • self.optimizer=AdamW (\nParameter Group 0\n    amsgrad: False\n    betas: (0.9, 0.95)\n    capturable: False\n    differentiable: False\n    eps: 1e-08\n    foreach: None\n    fused: True\n    lr: 0.0006\n    maximize: False\n    weight_decay: 0.1\n\nParameter Group 1\n    amsgrad: False\n   
…
