…
[2024-07-17 07:42:17.292626][INFO][model:445] - num decayed parameter tensors: 50, with 85,771,008 parameters
[2024-07-17 07:42:17.293296][INFO][model:449] - num non-decayed parameter tensors: 25, with 19,200 parameters
[2024-07-17 07:42:17.515324][CRITICAL][trainer:316] - "devid='cuda:1'"
[2024-07-17 07:42:17.515340][CRITICAL][trainer:316] - "devid='cuda:2'"
[2024-07-17 07:42:17.515465][CRITICAL][trainer:316] - "devid='cuda:3'"
[2024-07-17 07:42:18.431814][INFO][model:465] - using fused AdamW: True
[2024-07-17 07:42:18.432620][CRITICAL][trainer:316] - "devid='cuda:0'"
[2024-07-17 07:42:19.951020][INFO][trainer:356] - • self.model=GPT(
  (transformer): ModuleDict(
    (wte): Embedding(65, 768)
    (wpe): Embedding(1024, 768)
    (drop): Dropout(p=0.0, inplace=False)
    (h): ModuleList(
      (0-11): 12 x Block(
        (ln_1): LayerNorm()
        (attn): CausalSelfAttention(
          (c_attn): Linear(in_features=768, out_features=2304, bias=False)
          (c_proj): Linear(in_features=768, out_features=768, bias=False)
          (attn_dropout): Dropout(p=0.0, inplace=False)
          (resid_dropout): Dropout(p=0.0, inplace=False)
        )
        (ln_2): LayerNorm()
        (mlp): MLP(
          (c_fc): Linear(in_features=768, out_features=3072, bias=False)
          (act_fn): GELU(approximate='none')
          (c_proj): Linear(in_features=3072, out_features=768, bias=False)
          (dropout): Dropout(p=0.0, inplace=False)
        )
      )
    )
    (ln_f): LayerNorm()
  )
  (lm_head): Linear(in_features=768, out_features=65, bias=False)
)
[2024-07-17 07:42:19.955340][INFO][trainer:357] - • self.grad_scaler=<torch.cuda.amp.grad_scaler.GradScaler object at 0x145a38f0f090>
[2024-07-17 07:42:19.956897][INFO][trainer:358] - • self.model_engine=DistributedDataParallel(
  (module): GPT(
    (transformer): ModuleDict(
      (wte): Embedding(65, 768)
      (wpe): Embedding(1024, 768)
      (drop): Dropout(p=0.0, inplace=False)
      (h): ModuleList(
        (0-11): 12 x Block(
          (ln_1): LayerNorm()
          (attn): CausalSelfAttention(
            (c_attn): Linear(in_features=768, out_features=2304, bias=False)
            (c_proj): Linear(in_features=768, out_features=768, bias=False)
            (attn_dropout): Dropout(p=0.0, inplace=False)
            (resid_dropout): Dropout(p=0.0, inplace=False)
          )
          (ln_2): LayerNorm()
          (mlp): MLP(
            (c_fc): Linear(in_features=768, out_features=3072, bias=False)
            (act_fn): GELU(approximate='none')
            (c_proj): Linear(in_features=3072, out_features=768, bias=False)
            (dropout): Dropout(p=0.0, inplace=False)
          )
        )
      )
      (ln_f): LayerNorm()
    )
    (lm_head): Linear(in_features=768, out_features=65, bias=False)
  )
)
[2024-07-17 07:42:19.961066][INFO][trainer:359] - • self.optimizer=AdamW (
Parameter Group 0
    amsgrad: False
    betas: (0.9, 0.95)
    capturable: False
    differentiable: False
    eps: 1e-08
    foreach: None
    fused: True
    lr: 0.0006
    maximize: False
    weight_decay: 0.1

Parameter Group 1
    amsgrad: False
    betas: (0.9, 0.95)
…
